~~~~~~~~~~~~
-- Image classification 1 epoch 
 Training model - customized network based on MobileNetV2 plus additional layers
-- Model layers 
   MobileNet_ConvAdd(
     (model_M): MobileNetV2(
       (features): Sequential(
         (0): ConvBNReLU(
           (0): Conv2d(3, 32, kernel_size=(3, 3), stride=(2, 2), padding=(1, 1), bias=False)
           (1): BatchNorm2d(32, eps=1e-05, momentum=0.1, affine=True, track_running_stats=True)
           (2): ReLU6(inplace=True)
         )
         (1): InvertedResidual(
           (conv): Sequential(
             (0): ConvBNReLU(
               (0): Conv2d(32, 32, kernel_size=(3, 3), stride=(1, 1), padding=(1, 1), groups=32, bias=False)
               (1): BatchNorm2d(32, eps=1e-05, momentum=0.1, affine=True, track_running_stats=True)
               (2): ReLU6(inplace=True)
             )
             (1): Conv2d(32, 16, kernel_size=(1, 1), stride=(1, 1), bias=False)
             (2): BatchNorm2d(16, eps=1e-05, momentum=0.1, affine=True, track_running_stats=True)
           )
         )
         (2): InvertedResidual(
           (conv): Sequential(
             (0): ConvBNReLU(
               (0): Conv2d(16, 96, kernel_size=(1, 1), stride=(1, 1), bias=False)
               (1): BatchNorm2d(96, eps=1e-05, momentum=0.1, affine=True, track_running_stats=True)
               (2): ReLU6(inplace=True)
             )
             (1): ConvBNReLU(
               (0): Conv2d(96, 96, kernel_size=(3, 3), stride=(2, 2), padding=(1, 1), groups=96, bias=False)
               (1): BatchNorm2d(96, eps=1e-05, momentum=0.1, affine=True, track_running_stats=True)
               (2): ReLU6(inplace=True)
             )
             (2): Conv2d(96, 24, kernel_size=(1, 1), stride=(1, 1), bias=False)
             (3): BatchNorm2d(24, eps=1e-05, momentum=0.1, affine=True, track_running_stats=True)
           )
         )
         (3): InvertedResidual(
           (conv): Sequential(
             (0): ConvBNReLU(
               (0): Conv2d(24, 144, kernel_size=(1, 1), stride=(1, 1), bias=False)
               (1): BatchNorm2d(144, eps=1e-05, momentum=0.1, affine=True, track_running_stats=True)
               (2): ReLU6(inplace=True)
             )
             (1): ConvBNReLU(
               (0): Conv2d(144, 144, kernel_size=(3, 3), stride=(1, 1), padding=(1, 1), groups=144, bias=False)
               (1): BatchNorm2d(144, eps=1e-05, momentum=0.1, affine=True, track_running_stats=True)
               (2): ReLU6(inplace=True)
             )
             (2): Conv2d(144, 24, kernel_size=(1, 1), stride=(1, 1), bias=False)
             (3): BatchNorm2d(24, eps=1e-05, momentum=0.1, affine=True, track_running_stats=True)
           )
         )
         (4): InvertedResidual(
           (conv): Sequential(
             (0): ConvBNReLU(
               (0): Conv2d(24, 144, kernel_size=(1, 1), stride=(1, 1), bias=False)
               (1): BatchNorm2d(144, eps=1e-05, momentum=0.1, affine=True, track_running_stats=True)
               (2): ReLU6(inplace=True)
             )
             (1): ConvBNReLU(
               (0): Conv2d(144, 144, kernel_size=(3, 3), stride=(2, 2), padding=(1, 1), groups=144, bias=False)
               (1): BatchNorm2d(144, eps=1e-05, momentum=0.1, affine=True, track_running_stats=True)
               (2): ReLU6(inplace=True)
             )
             (2): Conv2d(144, 32, kernel_size=(1, 1), stride=(1, 1), bias=False)
             (3): BatchNorm2d(32, eps=1e-05, momentum=0.1, affine=True, track_running_stats=True)
           )
         )
         (5): InvertedResidual(
           (conv): Sequential(
             (0): ConvBNReLU(
               (0): Conv2d(32, 192, kernel_size=(1, 1), stride=(1, 1), bias=False)
               (1): BatchNorm2d(192, eps=1e-05, momentum=0.1, affine=True, track_running_stats=True)
               (2): ReLU6(inplace=True)
             )
             (1): ConvBNReLU(
               (0): Conv2d(192, 192, kernel_size=(3, 3), stride=(1, 1), padding=(1, 1), groups=192, bias=False)
               (1): BatchNorm2d(192, eps=1e-05, momentum=0.1, affine=True, track_running_stats=True)
               (2): ReLU6(inplace=True)
             )
             (2): Conv2d(192, 32, kernel_size=(1, 1), stride=(1, 1), bias=False)
             (3): BatchNorm2d(32, eps=1e-05, momentum=0.1, affine=True, track_running_stats=True)
           )
         )
         (6): InvertedResidual(
           (conv): Sequential(
             (0): ConvBNReLU(
               (0): Conv2d(32, 192, kernel_size=(1, 1), stride=(1, 1), bias=False)
               (1): BatchNorm2d(192, eps=1e-05, momentum=0.1, affine=True, track_running_stats=True)
               (2): ReLU6(inplace=True)
             )
             (1): ConvBNReLU(
               (0): Conv2d(192, 192, kernel_size=(3, 3), stride=(1, 1), padding=(1, 1), groups=192, bias=False)
               (1): BatchNorm2d(192, eps=1e-05, momentum=0.1, affine=True, track_running_stats=True)
               (2): ReLU6(inplace=True)
             )
             (2): Conv2d(192, 32, kernel_size=(1, 1), stride=(1, 1), bias=False)
             (3): BatchNorm2d(32, eps=1e-05, momentum=0.1, affine=True, track_running_stats=True)
           )
         )
         (7): InvertedResidual(
           (conv): Sequential(
             (0): ConvBNReLU(
               (0): Conv2d(32, 192, kernel_size=(1, 1), stride=(1, 1), bias=False)
               (1): BatchNorm2d(192, eps=1e-05, momentum=0.1, affine=True, track_running_stats=True)
               (2): ReLU6(inplace=True)
             )
             (1): ConvBNReLU(
               (0): Conv2d(192, 192, kernel_size=(3, 3), stride=(2, 2), padding=(1, 1), groups=192, bias=False)
               (1): BatchNorm2d(192, eps=1e-05, momentum=0.1, affine=True, track_running_stats=True)
               (2): ReLU6(inplace=True)
             )
             (2): Conv2d(192, 64, kernel_size=(1, 1), stride=(1, 1), bias=False)
             (3): BatchNorm2d(64, eps=1e-05, momentum=0.1, affine=True, track_running_stats=True)
           )
         )
         (8): InvertedResidual(
           (conv): Sequential(
             (0): ConvBNReLU(
               (0): Conv2d(64, 384, kernel_size=(1, 1), stride=(1, 1), bias=False)
               (1): BatchNorm2d(384, eps=1e-05, momentum=0.1, affine=True, track_running_stats=True)
               (2): ReLU6(inplace=True)
             )
             (1): ConvBNReLU(
               (0): Conv2d(384, 384, kernel_size=(3, 3), stride=(1, 1), padding=(1, 1), groups=384, bias=False)
               (1): BatchNorm2d(384, eps=1e-05, momentum=0.1, affine=True, track_running_stats=True)
               (2): ReLU6(inplace=True)
             )
             (2): Conv2d(384, 64, kernel_size=(1, 1), stride=(1, 1), bias=False)
             (3): BatchNorm2d(64, eps=1e-05, momentum=0.1, affine=True, track_running_stats=True)
           )
         )
         (9): InvertedResidual(
           (conv): Sequential(
             (0): ConvBNReLU(
               (0): Conv2d(64, 384, kernel_size=(1, 1), stride=(1, 1), bias=False)
               (1): BatchNorm2d(384, eps=1e-05, momentum=0.1, affine=True, track_running_stats=True)
               (2): ReLU6(inplace=True)
             )
             (1): ConvBNReLU(
               (0): Conv2d(384, 384, kernel_size=(3, 3), stride=(1, 1), padding=(1, 1), groups=384, bias=False)
               (1): BatchNorm2d(384, eps=1e-05, momentum=0.1, affine=True, track_running_stats=True)
               (2): ReLU6(inplace=True)
             )
             (2): Conv2d(384, 64, kernel_size=(1, 1), stride=(1, 1), bias=False)
             (3): BatchNorm2d(64, eps=1e-05, momentum=0.1, affine=True, track_running_stats=True)
           )
         )
         (10): InvertedResidual(
           (conv): Sequential(
             (0): ConvBNReLU(
               (0): Conv2d(64, 384, kernel_size=(1, 1), stride=(1, 1), bias=False)
               (1): BatchNorm2d(384, eps=1e-05, momentum=0.1, affine=True, track_running_stats=True)
               (2): ReLU6(inplace=True)
             )
             (1): ConvBNReLU(
               (0): Conv2d(384, 384, kernel_size=(3, 3), stride=(1, 1), padding=(1, 1), groups=384, bias=False)
               (1): BatchNorm2d(384, eps=1e-05, momentum=0.1, affine=True, track_running_stats=True)
               (2): ReLU6(inplace=True)
             )
             (2): Conv2d(384, 64, kernel_size=(1, 1), stride=(1, 1), bias=False)
             (3): BatchNorm2d(64, eps=1e-05, momentum=0.1, affine=True, track_running_stats=True)
           )
         )
         (11): InvertedResidual(
           (conv): Sequential(
             (0): ConvBNReLU(
               (0): Conv2d(64, 384, kernel_size=(1, 1), stride=(1, 1), bias=False)
               (1): BatchNorm2d(384, eps=1e-05, momentum=0.1, affine=True, track_running_stats=True)
               (2): ReLU6(inplace=True)
             )
             (1): ConvBNReLU(
               (0): Conv2d(384, 384, kernel_size=(3, 3), stride=(1, 1), padding=(1, 1), groups=384, bias=False)
               (1): BatchNorm2d(384, eps=1e-05, momentum=0.1, affine=True, track_running_stats=True)
               (2): ReLU6(inplace=True)
             )
             (2): Conv2d(384, 96, kernel_size=(1, 1), stride=(1, 1), bias=False)
             (3): BatchNorm2d(96, eps=1e-05, momentum=0.1, affine=True, track_running_stats=True)
           )
         )
         (12): InvertedResidual(
           (conv): Sequential(
             (0): ConvBNReLU(
               (0): Conv2d(96, 576, kernel_size=(1, 1), stride=(1, 1), bias=False)
               (1): BatchNorm2d(576, eps=1e-05, momentum=0.1, affine=True, track_running_stats=True)
               (2): ReLU6(inplace=True)
             )
             (1): ConvBNReLU(
               (0): Conv2d(576, 576, kernel_size=(3, 3), stride=(1, 1), padding=(1, 1), groups=576, bias=False)
               (1): BatchNorm2d(576, eps=1e-05, momentum=0.1, affine=True, track_running_stats=True)
               (2): ReLU6(inplace=True)
             )
             (2): Conv2d(576, 96, kernel_size=(1, 1), stride=(1, 1), bias=False)
             (3): BatchNorm2d(96, eps=1e-05, momentum=0.1, affine=True, track_running_stats=True)
           )
         )
         (13): InvertedResidual(
           (conv): Sequential(
             (0): ConvBNReLU(
               (0): Conv2d(96, 576, kernel_size=(1, 1), stride=(1, 1), bias=False)
               (1): BatchNorm2d(576, eps=1e-05, momentum=0.1, affine=True, track_running_stats=True)
               (2): ReLU6(inplace=True)
             )
             (1): ConvBNReLU(
               (0): Conv2d(576, 576, kernel_size=(3, 3), stride=(1, 1), padding=(1, 1), groups=576, bias=False)
               (1): BatchNorm2d(576, eps=1e-05, momentum=0.1, affine=True, track_running_stats=True)
               (2): ReLU6(inplace=True)
             )
             (2): Conv2d(576, 96, kernel_size=(1, 1), stride=(1, 1), bias=False)
             (3): BatchNorm2d(96, eps=1e-05, momentum=0.1, affine=True, track_running_stats=True)
           )
         )
         (14): InvertedResidual(
           (conv): Sequential(
             (0): ConvBNReLU(
               (0): Conv2d(96, 576, kernel_size=(1, 1), stride=(1, 1), bias=False)
               (1): BatchNorm2d(576, eps=1e-05, momentum=0.1, affine=True, track_running_stats=True)
               (2): ReLU6(inplace=True)
             )
             (1): ConvBNReLU(
               (0): Conv2d(576, 576, kernel_size=(3, 3), stride=(2, 2), padding=(1, 1), groups=576, bias=False)
               (1): BatchNorm2d(576, eps=1e-05, momentum=0.1, affine=True, track_running_stats=True)
               (2): ReLU6(inplace=True)
             )
             (2): Conv2d(576, 160, kernel_size=(1, 1), stride=(1, 1), bias=False)
             (3): BatchNorm2d(160, eps=1e-05, momentum=0.1, affine=True, track_running_stats=True)
           )
         )
         (15): InvertedResidual(
           (conv): Sequential(
             (0): ConvBNReLU(
               (0): Conv2d(160, 960, kernel_size=(1, 1), stride=(1, 1), bias=False)
               (1): BatchNorm2d(960, eps=1e-05, momentum=0.1, affine=True, track_running_stats=True)
               (2): ReLU6(inplace=True)
             )
             (1): ConvBNReLU(
               (0): Conv2d(960, 960, kernel_size=(3, 3), stride=(1, 1), padding=(1, 1), groups=960, bias=False)
               (1): BatchNorm2d(960, eps=1e-05, momentum=0.1, affine=True, track_running_stats=True)
               (2): ReLU6(inplace=True)
             )
             (2): Conv2d(960, 160, kernel_size=(1, 1), stride=(1, 1), bias=False)
             (3): BatchNorm2d(160, eps=1e-05, momentum=0.1, affine=True, track_running_stats=True)
           )
         )
         (16): InvertedResidual(
           (conv): Sequential(
             (0): ConvBNReLU(
               (0): Conv2d(160, 960, kernel_size=(1, 1), stride=(1, 1), bias=False)
               (1): BatchNorm2d(960, eps=1e-05, momentum=0.1, affine=True, track_running_stats=True)
               (2): ReLU6(inplace=True)
             )
             (1): ConvBNReLU(
               (0): Conv2d(960, 960, kernel_size=(3, 3), stride=(1, 1), padding=(1, 1), groups=960, bias=False)
               (1): BatchNorm2d(960, eps=1e-05, momentum=0.1, affine=True, track_running_stats=True)
               (2): ReLU6(inplace=True)
             )
             (2): Conv2d(960, 160, kernel_size=(1, 1), stride=(1, 1), bias=False)
             (3): BatchNorm2d(160, eps=1e-05, momentum=0.1, affine=True, track_running_stats=True)
           )
         )
         (17): InvertedResidual(
           (conv): Sequential(
             (0): ConvBNReLU(
               (0): Conv2d(160, 960, kernel_size=(1, 1), stride=(1, 1), bias=False)
               (1): BatchNorm2d(960, eps=1e-05, momentum=0.1, affine=True, track_running_stats=True)
               (2): ReLU6(inplace=True)
             )
             (1): ConvBNReLU(
               (0): Conv2d(960, 960, kernel_size=(3, 3), stride=(1, 1), padding=(1, 1), groups=960, bias=False)
               (1): BatchNorm2d(960, eps=1e-05, momentum=0.1, affine=True, track_running_stats=True)
               (2): ReLU6(inplace=True)
             )
             (2): Conv2d(960, 320, kernel_size=(1, 1), stride=(1, 1), bias=False)
             (3): BatchNorm2d(320, eps=1e-05, momentum=0.1, affine=True, track_running_stats=True)
           )
         )
         (18): ConvBNReLU(
           (0): Conv2d(320, 1280, kernel_size=(1, 1), stride=(1, 1), bias=False)
           (1): BatchNorm2d(1280, eps=1e-05, momentum=0.1, affine=True, track_running_stats=True)
           (2): ReLU6(inplace=True)
         )
       )
       (classifier): Sequential(
         (0): Dropout(p=0.2, inplace=False)
         (1): Linear(in_features=1280, out_features=1000, bias=True)
       )
     )
     (MobileNet_ConvAdd_conv1): Sequential(
       (0): Sequential(
         (0): ConvBNReLU(
           (0): Conv2d(3, 32, kernel_size=(3, 3), stride=(2, 2), padding=(1, 1), bias=False)
           (1): BatchNorm2d(32, eps=1e-05, momentum=0.1, affine=True, track_running_stats=True)
           (2): ReLU6(inplace=True)
         )
         (1): InvertedResidual(
           (conv): Sequential(
             (0): ConvBNReLU(
               (0): Conv2d(32, 32, kernel_size=(3, 3), stride=(1, 1), padding=(1, 1), groups=32, bias=False)
               (1): BatchNorm2d(32, eps=1e-05, momentum=0.1, affine=True, track_running_stats=True)
               (2): ReLU6(inplace=True)
             )
             (1): Conv2d(32, 16, kernel_size=(1, 1), stride=(1, 1), bias=False)
             (2): BatchNorm2d(16, eps=1e-05, momentum=0.1, affine=True, track_running_stats=True)
           )
         )
         (2): InvertedResidual(
           (conv): Sequential(
             (0): ConvBNReLU(
               (0): Conv2d(16, 96, kernel_size=(1, 1), stride=(1, 1), bias=False)
               (1): BatchNorm2d(96, eps=1e-05, momentum=0.1, affine=True, track_running_stats=True)
               (2): ReLU6(inplace=True)
             )
             (1): ConvBNReLU(
               (0): Conv2d(96, 96, kernel_size=(3, 3), stride=(2, 2), padding=(1, 1), groups=96, bias=False)
               (1): BatchNorm2d(96, eps=1e-05, momentum=0.1, affine=True, track_running_stats=True)
               (2): ReLU6(inplace=True)
             )
             (2): Conv2d(96, 24, kernel_size=(1, 1), stride=(1, 1), bias=False)
             (3): BatchNorm2d(24, eps=1e-05, momentum=0.1, affine=True, track_running_stats=True)
           )
         )
         (3): InvertedResidual(
           (conv): Sequential(
             (0): ConvBNReLU(
               (0): Conv2d(24, 144, kernel_size=(1, 1), stride=(1, 1), bias=False)
               (1): BatchNorm2d(144, eps=1e-05, momentum=0.1, affine=True, track_running_stats=True)
               (2): ReLU6(inplace=True)
             )
             (1): ConvBNReLU(
               (0): Conv2d(144, 144, kernel_size=(3, 3), stride=(1, 1), padding=(1, 1), groups=144, bias=False)
               (1): BatchNorm2d(144, eps=1e-05, momentum=0.1, affine=True, track_running_stats=True)
               (2): ReLU6(inplace=True)
             )
             (2): Conv2d(144, 24, kernel_size=(1, 1), stride=(1, 1), bias=False)
             (3): BatchNorm2d(24, eps=1e-05, momentum=0.1, affine=True, track_running_stats=True)
           )
         )
         (4): InvertedResidual(
           (conv): Sequential(
             (0): ConvBNReLU(
               (0): Conv2d(24, 144, kernel_size=(1, 1), stride=(1, 1), bias=False)
               (1): BatchNorm2d(144, eps=1e-05, momentum=0.1, affine=True, track_running_stats=True)
               (2): ReLU6(inplace=True)
             )
             (1): ConvBNReLU(
               (0): Conv2d(144, 144, kernel_size=(3, 3), stride=(2, 2), padding=(1, 1), groups=144, bias=False)
               (1): BatchNorm2d(144, eps=1e-05, momentum=0.1, affine=True, track_running_stats=True)
               (2): ReLU6(inplace=True)
             )
             (2): Conv2d(144, 32, kernel_size=(1, 1), stride=(1, 1), bias=False)
             (3): BatchNorm2d(32, eps=1e-05, momentum=0.1, affine=True, track_running_stats=True)
           )
         )
         (5): InvertedResidual(
           (conv): Sequential(
             (0): ConvBNReLU(
               (0): Conv2d(32, 192, kernel_size=(1, 1), stride=(1, 1), bias=False)
               (1): BatchNorm2d(192, eps=1e-05, momentum=0.1, affine=True, track_running_stats=True)
               (2): ReLU6(inplace=True)
             )
             (1): ConvBNReLU(
               (0): Conv2d(192, 192, kernel_size=(3, 3), stride=(1, 1), padding=(1, 1), groups=192, bias=False)
               (1): BatchNorm2d(192, eps=1e-05, momentum=0.1, affine=True, track_running_stats=True)
               (2): ReLU6(inplace=True)
             )
             (2): Conv2d(192, 32, kernel_size=(1, 1), stride=(1, 1), bias=False)
             (3): BatchNorm2d(32, eps=1e-05, momentum=0.1, affine=True, track_running_stats=True)
           )
         )
         (6): InvertedResidual(
           (conv): Sequential(
             (0): ConvBNReLU(
               (0): Conv2d(32, 192, kernel_size=(1, 1), stride=(1, 1), bias=False)
               (1): BatchNorm2d(192, eps=1e-05, momentum=0.1, affine=True, track_running_stats=True)
               (2): ReLU6(inplace=True)
             )
             (1): ConvBNReLU(
               (0): Conv2d(192, 192, kernel_size=(3, 3), stride=(1, 1), padding=(1, 1), groups=192, bias=False)
               (1): BatchNorm2d(192, eps=1e-05, momentum=0.1, affine=True, track_running_stats=True)
               (2): ReLU6(inplace=True)
             )
             (2): Conv2d(192, 32, kernel_size=(1, 1), stride=(1, 1), bias=False)
             (3): BatchNorm2d(32, eps=1e-05, momentum=0.1, affine=True, track_running_stats=True)
           )
         )
         (7): InvertedResidual(
           (conv): Sequential(
             (0): ConvBNReLU(
               (0): Conv2d(32, 192, kernel_size=(1, 1), stride=(1, 1), bias=False)
               (1): BatchNorm2d(192, eps=1e-05, momentum=0.1, affine=True, track_running_stats=True)
               (2): ReLU6(inplace=True)
             )
             (1): ConvBNReLU(
               (0): Conv2d(192, 192, kernel_size=(3, 3), stride=(2, 2), padding=(1, 1), groups=192, bias=False)
               (1): BatchNorm2d(192, eps=1e-05, momentum=0.1, affine=True, track_running_stats=True)
               (2): ReLU6(inplace=True)
             )
             (2): Conv2d(192, 64, kernel_size=(1, 1), stride=(1, 1), bias=False)
             (3): BatchNorm2d(64, eps=1e-05, momentum=0.1, affine=True, track_running_stats=True)
           )
         )
         (8): InvertedResidual(
           (conv): Sequential(
             (0): ConvBNReLU(
               (0): Conv2d(64, 384, kernel_size=(1, 1), stride=(1, 1), bias=False)
               (1): BatchNorm2d(384, eps=1e-05, momentum=0.1, affine=True, track_running_stats=True)
               (2): ReLU6(inplace=True)
             )
             (1): ConvBNReLU(
               (0): Conv2d(384, 384, kernel_size=(3, 3), stride=(1, 1), padding=(1, 1), groups=384, bias=False)
               (1): BatchNorm2d(384, eps=1e-05, momentum=0.1, affine=True, track_running_stats=True)
               (2): ReLU6(inplace=True)
             )
             (2): Conv2d(384, 64, kernel_size=(1, 1), stride=(1, 1), bias=False)
             (3): BatchNorm2d(64, eps=1e-05, momentum=0.1, affine=True, track_running_stats=True)
           )
         )
         (9): InvertedResidual(
           (conv): Sequential(
             (0): ConvBNReLU(
               (0): Conv2d(64, 384, kernel_size=(1, 1), stride=(1, 1), bias=False)
               (1): BatchNorm2d(384, eps=1e-05, momentum=0.1, affine=True, track_running_stats=True)
               (2): ReLU6(inplace=True)
             )
             (1): ConvBNReLU(
               (0): Conv2d(384, 384, kernel_size=(3, 3), stride=(1, 1), padding=(1, 1), groups=384, bias=False)
               (1): BatchNorm2d(384, eps=1e-05, momentum=0.1, affine=True, track_running_stats=True)
               (2): ReLU6(inplace=True)
             )
             (2): Conv2d(384, 64, kernel_size=(1, 1), stride=(1, 1), bias=False)
             (3): BatchNorm2d(64, eps=1e-05, momentum=0.1, affine=True, track_running_stats=True)
           )
         )
         (10): InvertedResidual(
           (conv): Sequential(
             (0): ConvBNReLU(
               (0): Conv2d(64, 384, kernel_size=(1, 1), stride=(1, 1), bias=False)
               (1): BatchNorm2d(384, eps=1e-05, momentum=0.1, affine=True, track_running_stats=True)
               (2): ReLU6(inplace=True)
             )
             (1): ConvBNReLU(
               (0): Conv2d(384, 384, kernel_size=(3, 3), stride=(1, 1), padding=(1, 1), groups=384, bias=False)
               (1): BatchNorm2d(384, eps=1e-05, momentum=0.1, affine=True, track_running_stats=True)
               (2): ReLU6(inplace=True)
             )
             (2): Conv2d(384, 64, kernel_size=(1, 1), stride=(1, 1), bias=False)
             (3): BatchNorm2d(64, eps=1e-05, momentum=0.1, affine=True, track_running_stats=True)
           )
         )
         (11): InvertedResidual(
           (conv): Sequential(
             (0): ConvBNReLU(
               (0): Conv2d(64, 384, kernel_size=(1, 1), stride=(1, 1), bias=False)
               (1): BatchNorm2d(384, eps=1e-05, momentum=0.1, affine=True, track_running_stats=True)
               (2): ReLU6(inplace=True)
             )
             (1): ConvBNReLU(
               (0): Conv2d(384, 384, kernel_size=(3, 3), stride=(1, 1), padding=(1, 1), groups=384, bias=False)
               (1): BatchNorm2d(384, eps=1e-05, momentum=0.1, affine=True, track_running_stats=True)
               (2): ReLU6(inplace=True)
             )
             (2): Conv2d(384, 96, kernel_size=(1, 1), stride=(1, 1), bias=False)
             (3): BatchNorm2d(96, eps=1e-05, momentum=0.1, affine=True, track_running_stats=True)
           )
         )
         (12): InvertedResidual(
           (conv): Sequential(
             (0): ConvBNReLU(
               (0): Conv2d(96, 576, kernel_size=(1, 1), stride=(1, 1), bias=False)
               (1): BatchNorm2d(576, eps=1e-05, momentum=0.1, affine=True, track_running_stats=True)
               (2): ReLU6(inplace=True)
             )
             (1): ConvBNReLU(
               (0): Conv2d(576, 576, kernel_size=(3, 3), stride=(1, 1), padding=(1, 1), groups=576, bias=False)
               (1): BatchNorm2d(576, eps=1e-05, momentum=0.1, affine=True, track_running_stats=True)
               (2): ReLU6(inplace=True)
             )
             (2): Conv2d(576, 96, kernel_size=(1, 1), stride=(1, 1), bias=False)
             (3): BatchNorm2d(96, eps=1e-05, momentum=0.1, affine=True, track_running_stats=True)
           )
         )
         (13): InvertedResidual(
           (conv): Sequential(
             (0): ConvBNReLU(
               (0): Conv2d(96, 576, kernel_size=(1, 1), stride=(1, 1), bias=False)
               (1): BatchNorm2d(576, eps=1e-05, momentum=0.1, affine=True, track_running_stats=True)
               (2): ReLU6(inplace=True)
             )
             (1): ConvBNReLU(
               (0): Conv2d(576, 576, kernel_size=(3, 3), stride=(1, 1), padding=(1, 1), groups=576, bias=False)
               (1): BatchNorm2d(576, eps=1e-05, momentum=0.1, affine=True, track_running_stats=True)
               (2): ReLU6(inplace=True)
             )
             (2): Conv2d(576, 96, kernel_size=(1, 1), stride=(1, 1), bias=False)
             (3): BatchNorm2d(96, eps=1e-05, momentum=0.1, affine=True, track_running_stats=True)
           )
         )
         (14): InvertedResidual(
           (conv): Sequential(
             (0): ConvBNReLU(
               (0): Conv2d(96, 576, kernel_size=(1, 1), stride=(1, 1), bias=False)
               (1): BatchNorm2d(576, eps=1e-05, momentum=0.1, affine=True, track_running_stats=True)
               (2): ReLU6(inplace=True)
             )
             (1): ConvBNReLU(
               (0): Conv2d(576, 576, kernel_size=(3, 3), stride=(2, 2), padding=(1, 1), groups=576, bias=False)
               (1): BatchNorm2d(576, eps=1e-05, momentum=0.1, affine=True, track_running_stats=True)
               (2): ReLU6(inplace=True)
             )
             (2): Conv2d(576, 160, kernel_size=(1, 1), stride=(1, 1), bias=False)
             (3): BatchNorm2d(160, eps=1e-05, momentum=0.1, affine=True, track_running_stats=True)
           )
         )
         (15): InvertedResidual(
           (conv): Sequential(
             (0): ConvBNReLU(
               (0): Conv2d(160, 960, kernel_size=(1, 1), stride=(1, 1), bias=False)
               (1): BatchNorm2d(960, eps=1e-05, momentum=0.1, affine=True, track_running_stats=True)
               (2): ReLU6(inplace=True)
             )
             (1): ConvBNReLU(
               (0): Conv2d(960, 960, kernel_size=(3, 3), stride=(1, 1), padding=(1, 1), groups=960, bias=False)
               (1): BatchNorm2d(960, eps=1e-05, momentum=0.1, affine=True, track_running_stats=True)
               (2): ReLU6(inplace=True)
             )
             (2): Conv2d(960, 160, kernel_size=(1, 1), stride=(1, 1), bias=False)
             (3): BatchNorm2d(160, eps=1e-05, momentum=0.1, affine=True, track_running_stats=True)
           )
         )
         (16): InvertedResidual(
           (conv): Sequential(
             (0): ConvBNReLU(
               (0): Conv2d(160, 960, kernel_size=(1, 1), stride=(1, 1), bias=False)
               (1): BatchNorm2d(960, eps=1e-05, momentum=0.1, affine=True, track_running_stats=True)
               (2): ReLU6(inplace=True)
             )
             (1): ConvBNReLU(
               (0): Conv2d(960, 960, kernel_size=(3, 3), stride=(1, 1), padding=(1, 1), groups=960, bias=False)
               (1): BatchNorm2d(960, eps=1e-05, momentum=0.1, affine=True, track_running_stats=True)
               (2): ReLU6(inplace=True)
             )
             (2): Conv2d(960, 160, kernel_size=(1, 1), stride=(1, 1), bias=False)
             (3): BatchNorm2d(160, eps=1e-05, momentum=0.1, affine=True, track_running_stats=True)
           )
         )
         (17): InvertedResidual(
           (conv): Sequential(
             (0): ConvBNReLU(
               (0): Conv2d(160, 960, kernel_size=(1, 1), stride=(1, 1), bias=False)
               (1): BatchNorm2d(960, eps=1e-05, momentum=0.1, affine=True, track_running_stats=True)
               (2): ReLU6(inplace=True)
             )
             (1): ConvBNReLU(
               (0): Conv2d(960, 960, kernel_size=(3, 3), stride=(1, 1), padding=(1, 1), groups=960, bias=False)
               (1): BatchNorm2d(960, eps=1e-05, momentum=0.1, affine=True, track_running_stats=True)
               (2): ReLU6(inplace=True)
             )
             (2): Conv2d(960, 320, kernel_size=(1, 1), stride=(1, 1), bias=False)
             (3): BatchNorm2d(320, eps=1e-05, momentum=0.1, affine=True, track_running_stats=True)
           )
         )
         (18): ConvBNReLU(
           (0): Conv2d(320, 1280, kernel_size=(1, 1), stride=(1, 1), bias=False)
           (1): BatchNorm2d(1280, eps=1e-05, momentum=0.1, affine=True, track_running_stats=True)
           (2): ReLU6(inplace=True)
         )
       )
       (1): Conv2d(1280, 1280, kernel_size=(2, 2), stride=(2, 2), bias=False)
       (2): MaxPool2d(kernel_size=2, stride=2, padding=0, dilation=1, ceil_mode=False)
       (3): ReLU()
       (4): Conv2d(1280, 320, kernel_size=(1, 1), stride=(1, 1), bias=False)
       (5): Flatten()
     )
     (MobileNet_ConvAdd_fc2): Sequential(
       (0): Dropout(p=0.2, inplace=False)
       (1): ReLU()
       (2): Dropout(p=0.3, inplace=False)
       (3): Linear(in_features=320, out_features=50, bias=True)
     )
     (MobileNet_ConvAdd_fc3): Sequential(
       (0): Linear(in_features=50, out_features=2, bias=True)
       (1): LogSoftmax()
     )
   )
-- NLLLoss
-- Adam optimizer 
   ('state', ':', {})
   ('param_groups', ':', [{'lr': 0.0015, 'betas': (0.9, 0.999), 'eps': 1e-08, 'weight_decay': 1e-05, 'amsgrad': False, 'params': [140008749679528, 140008749679672, 140008749811968, 140008749812184, 140008749812112, 140008749812328, 140008749812616, 140008749812
…
